checkpoint.pth (torch, 29207 bytes, 6 tensors)

fc1.weight f4 [64, 37]
0	0xbc9e610e	-0.019333389
1	0x3da33b5f	0.079703085
2	0xbf195aff	-0.59904474
3	0xbcaeb1d6	-0.021325033
4	0xbedd6647	-0.43242094
5	0xbdaa3365	-0.08310584
6	0xbe934a52	-0.2876764
7	0x3e7b18cc	0.24521178
8	0x3db58186	0.08862595
9	0xbe816a1f	-0.25276276
10	0x3da68e81	0.08132649
11	0xbea2b3b6	-0.31777734
12	0xbe4d0d5c	-0.20024627
13	0xbd89adc9	-0.067226
14	0xbed33cf3	-0.41257438
15	0x3e6f1efd	0.23351665
16	0xbd1309ef	-0.035898145
17	0xbdf30d0c	-0.11867723
18	0xbee8be15	-0.4545752
19	0x3dc812ce	0.09769212
20	0x3cbebea1	0.023284258
21	0xbea26b42	-0.31722456
22	0x3ea1aa71	0.3157535
23	0xbd858c7f	-0.06520938
24	0xbec6f62f	-0.38859698
25	0x3dba64bf	0.09101247
26	0xbde92789	-0.11384494
27	0xbd78ae97	-0.060713377
28	0xbebdc8af	-0.37067172
29	0x3e07b670	0.13253188
30	0xbe1d303e	-0.15350434
31	0xbe2f5579	-0.17122449
32	0x3dbe367c	0.09287736
33	0xbe91a86f	-0.28448817
34	0xbec4aa81	-0.38411334
35	0x3d93a205	0.07208637
36	0xbd869ac3	-0.06572487
37	0x3dd6cff2	0.10488881
38	0x3e0f2eb4	0.1398266
39	0x3d1b6b63	0.03794421
40	0xbdbb9f9a	-0.09161301
41	0xbe3d8c7e	-0.18510625
42	0xbc5fe1b2	-0.01366465
43	0xbbe684d2	-0.0070348764
44	0xbe0d79a7	-0.13815938
45	0xbdc2d123	-0.09512546
46	0xbe36771a	-0.17818871
47	0x3e1c278e	0.15249464
48	0xbd9e38ed	-0.077257015
49	0xbc7dfc3b	-0.015502031
50	0x3d39b4db	0.045338493
51	0x3de0103e	0.10940598
52	0x3e238a99	0.1597084
53	0xbc5d21e3	-0.013496849
54	0xbd8b4560	-0.068003416
55	0xbe5d739f	-0.21626137
56	0xbdaffe70	-0.08593452
57	0xbd6b0753	-0.05738003
58	0xbe480942	-0.19534782
59	0xbd687f3b	-0.05676196
60	0xbd9caf81	-0.07650662
61	0xbddb6c37	-0.10714
62	0xbe43e8e4	-0.1913181
63	0x3dc9e39a	0.09857865
64	0x3ce1c920	0.027561724
65	0x3e1920ee	0.14953968
66	0x3e4286c3	0.1899672
67	0x3ddfd34c	0.109289736
68	0xbde105be	-0.10987423
69	0x3dde1c6a	0.10845263
70	0x3e32acae	0.17448685
71	0xbcb9eecd	-0.022696877
72	0x3b82de30	0.003993772
73	0x3d85f04c	0.065399736
74	0x3e5aecb8	0.21379364
75	0x3d4c271b	0.04984198
76	0xbe190ea9	-0.14946999
77	0x3d2e7afa	0.04259775
78	0x3d3c99cc	0.04604511
79	0xbf3c6037	-0.7358431
80	0x3d013edd	0.03155409
81	0x3ebd7ecc	0.370108
82	0xbe8f24cd	-0.27957764
83	0xbf23c415	-0.6397107
84	0x3df90da6	0.12160806
85	0x3de2aea0	0.11068463
86	0xbd1065e4	-0.03525342
87	0xbe10b218	-0.14130437
88	0xbcabd2a7	-0.02097447
89	0xbdd32658	-0.10310048
90	0x3d1d137c	0.03834866
91	0x3e1e13a9	0.15437187
92	0x3bd97631	0.006636404
93	0x3dcce83f	0.10005235
94	0xbd20b6b7	-0.03923675
95	0x3cb6340a	0.022241611
96	0x3ccbd23f	0.024880527
97	0xbd320245	-0.043459196
98	0xbd341620	-0.043966413
99	0xbe6bd7f8	-0.23031604
100	0x3e8a39d4	0.26997244
101	0x3d43691a	0.047707655
102	0xbb516522	-0.003195115
103	0xbd313610	-0.04326445
104	0xbf5a05c2	-0.85165036
105	0x3c90ce59	0.01767652
106	0x3e01c5ee	0.1267316
107	0xbd0a5f77	-0.03378245
108	0xbec99f34	-0.39379275
109	0xbd7f886e	-0.06238597
110	0xbd45c052	-0.048279114
111	0x3d6b193d	0.057397116
112	0x3e83cb37	0.25740978
113	0x3e583bcd	0.21116562
114	0xbdba32ba	-0.090917066
115	0xbeb69672	-0.35661656
116	0xbdd9f722	-0.1064284
117	0xbd40800f	-0.046997126
118	0x3ee4f1a0	0.44715595
119	0xbea2a19a	-0.31763917
120	0xbfe1aed5	-1.763148
121	0xbd91b6c8	-0.07114941
122	0x3d4f8dac	0.05067222
123	0x3dc4058a	0.09571369
124	0x3d873b81	0.06603146
125	0xbe50e40e	-0.20399496
126	0xbe16ef14	-0.14739639
127	0x3e4ff28d	0.2030737
128	0x3ce702be	0.02819955
129	0xbe2b12c9	-0.16706385
130	0xbf0abe1d	-0.5419634
131	0x3db75aa8	0.08952838
132	0x3d36e8f9	0.044655774
133	0x3dff67b8	0.12470955
134	0xbcd29ddd	-0.02571004
135	0xbd5997f6	-0.053123437
136	0x3d055e19	0.03256044
137	0x3e9845ef	0.29740855
138	0x3e473e9b	0.19457476
139	0xbeb6054a	-0.3555091
140	0xbf4bbe72	-0.7958747
141	0x3decaa4d	0.1155592
142	0x3dd75848	0.10514885
143	0x3e1f94cd	0.15584107
144	0xbea24674	-0.31694376
145	0xbf68207a	-0.90674555
146	0x3d9a1df2	0.07525243
147	0x39f3cddc	0.0004650195
148	0xbc80ca66	-0.015721511
149	0xbee7db87	-0.45284674
150	0xbde91877	-0.113816194
151	0xbdb44790	-0.08802712
152	0xbc2c1ab0	-0.01050441
153	0xbcd67d69	-0.026182847
154	0xbe38e245	-0.18055065
155	0x3d0cba75	0.034357507
156	0xbd6f51ae	-0.058427505
157	0xbef7a476	-0.4836766
158	0x3ca10044	0.019653447
159	0xbe08e50e	-0.13368627
160	0xbcec784d	-0.028865958
161	0xbe35a511	-0.17738749
162	0xbf06901c	-0.52563643
163	0xbdb95948	-0.09050232
164	0xbe1c33cc	-0.15254134
165	0xbe30a35a	-0.17249814
166	0x3d0d4ea9	0.034498844
167	0x3be47d9f	0.006972983
168	0xbdcf3c30	-0.10118902
169	0x3d21545f	0.039387103
170	0xbe1fce9c	-0.15606159
171	0x3df1d169	0.1180752
172	0x3e705a11	0.23471858
173	0xbd72612f	-0.059174713
174	0xbe20bd9b	-0.15697329
175	0x3e6c0957	0.23050438
176	0xbe364530	-0.1779983
177	0xbd543500	-0.051808357
178	0x3d8b4a03	0.06801226
179	0xbec59f9a	-0.3859833
180	0x3e7d5ef0	0.24743247
181	0xbda3657c	-0.07978341
182	0x3d91a3c8	0.07111317
183	0xbdb120e7	-0.08648854
184	0x3ca09567	0.01960249
185	0x3ba30238	0.0049746297
186	0xbda873ae	-0.08225189
187	0x3cab5d1a	0.020918418
188	0x3d352a07	0.044229534
189	0x3e7cdf5c	0.2469458
190	0x3e3f599b	0.18686526
191	0x3e4260ae	0.18982193
192	0x3dc7afc4	0.097503215
193	0xbeb5e79d	-0.3552827
194	0xbfd97b15	-1.6990687
195	0xbd272d7b	-0.040814858
196	0x3caed2d8	0.021340773
197	0xbd8e3a1a	-0.06944676
198	0xbe538197	-0.20654903
199	0xbd5fca94	-0.054636553
200	0x3d9fc512	0.0780126
201	0x3e0a8bed	0.1352994
202	0xbdefd95e	-0.117113814
203	0xbddb767c	-0.107159585
204	0xbdde3a70	-0.1085099
205	0x3cf01dd3	0.029311096
206	0xbc404120	-0.011734277
207	0x3e66b91d	0.22531553
208	0x3e03d114	0.12872726
209	0x3dd4bd80	0.10387707
210	0xbbeaaa98	-0.0071614496
211	0x3c9b1dda	0.018935133
212	0x3d78e735	0.06076737
213	0xbd04134f	-0.032244977
214	0x3e63a772	0.22231844
215	0xbd2d8320	-0.04236138
216	0x3d24f02c	0.04026811
217	0x3b8ab008	0.0042324103
218	0x3e37b921	0.17941715
219	0x3e7aa647	0.24477492
220	0xbd0b76ae	-0.03404873
221	0xbbeda4dd	-0.0072523193
222	0xbd1ffac4	-0.039057508
223	0x3d3fe2dd	0.046847213
224	0xbe5aee77	-0.2138003
225	0xbdb80b6d	-0.08986554
226	0xbe1ec7e9	-0.15505947
227	0x3e1767f5	0.1478575
228	0xbe29cf61	-0.16583015
229	0xbe17d607	-0.14827739
230	0xbe147b5e	-0.14500186
231	0xbda70809	-0.081558295
232	0x3d54efe3	0.051986586
233	0x3dc1e90c	0.09468278
234	0xbb008c6c	-0.0019614948
235	0xbe2679d0	-0.16257405
236	0xbe46cc6d	-0.1941392
237	0xbca78fb6	-0.020454269
238	0xbe14a8f5	-0.14517577
239	0x3e074ae8	0.13212168
240	0xbe89a730	-0.26885366
241	0xbd096f94	-0.033553675
242	0x3e1d705b	0.15374891
243	0xbdab11a2	-0.083529726
244	0xbe235080	-0.15948677
245	0xbe84fc4a	-0.2597373
246	0xbdc0552a	-0.09391244
247	0x3de5f7b8	0.11228889
248	0xbd484797	-0.0488964
249	0xbe87864e	-0.26469654
250	0xbefef385	-0.49795166
251	0xbe9a25c2	-0.30106932
252	0x3e747600	0.23873138
253	0xbc90b9f3	-0.017666792
254	0xbda20f14	-0.07913032
255	0xbea51f52	-0.32250458

fc1.bias f4 [64]
0	0x3da9c66d	0.082898
1	0xbd831cdf	-0.06401991
2	0xbe24fda4	-0.16112381
3	0x3ce1dba6	0.027570557
4	0x3dd4014b	0.10351809
5	0xbc9055e9	-0.01761909
6	0xbd3b5375	-0.045733888
7	0xbd380874	-0.044929937
8	0x3d6ba980	0.057534695
9	0xbe9b043f	-0.30276677
10	0x3e038ad1	0.12845923
11	0x3e2a5334	0.16633302
12	0x3dafa453	0.08576264
13	0x3e8608a9	0.26178482
14	0xbe106ba2	-0.14103559
15	0xbe07f8b4	-0.13278466
16	0xbd4be947	-0.049783017
17	0x3d610852	0.054939575
18	0xbbbf93cc	-0.005846476
19	0xbe8e8a51	-0.27839902
20	0xbe51e935	-0.20499118
21	0x3da675c5	0.081279315
22	0xbd8673bd	-0.06565044
23	0xbc1269c9	-0.008936354
24	0xbe02d056	-0.12774786
25	0x3d616a30	0.05503291
26	0xbdcd0e52	-0.10012497
27	0xbe573bb5	-0.2101887
28	0x3ddc226e	0.107487544
29	0x3e4290ec	0.19000596
30	0xbd87e9a7	-0.066363625
31	0xbe44c361	-0.19215156
32	0x3e0e73d7	0.13911377
33	0x3d06f3bf	0.0329473
34	0xbe04b545	-0.12959774
35	0x3dbc4375	0.09192554
36	0xbda274c5	-0.07932428
37	0x3ba969c2	0.005170078
38	0xbc790f7f	-0.015201448
39	0xbd08999d	-0.033349622
40	0xbe02f6f7	-0.12789522
41	0xbe1c22cd	-0.1524765
42	0xbc5f704d	-0.013637614
43	0x3e0fec73	0.14055042
44	0x3bdbbd3d	0.0067059086
45	0xbdcdd7de	-0.10050939
46	0xbde6774c	-0.11253223
47	0xbe4c5aac	-0.19956464
48	0xbe3aa34f	-0.1822636
49	0x3d5ba650	0.053625405
50	0xbe0025b8	-0.12514389
51	0x3dc5e92e	0.09663616
52	0x3cf3ce49	0.02976145
53	0xbc7d9949	-0.015478441
54	0xbe81370d	-0.25237313
55	0x3c91635f	0.01774758
56	0x3bf3eabf	0.0074437554
57	0xbde43857	-0.111435585
58	0xbd817625	-0.063213624
59	0xbe019a7a	-0.12656584
60	0xbde2eced	-0.11080346
61	0x3e5b9abb	0.21445744
62	0xbcfe8e91	-0.03107384
63	0x3da4df46	0.080503985

fc2.weight f4 [64, 64]
0	0xbe282f3f	-0.16424273
1	0x3e0c57fd	0.1370544
2	0x3df84e5b	0.1212432
3	0x3ea01ee0	0.31273556
4	0x3c65a980	0.014017463
5	0xbe69bbe1	-0.22825576
6	0xbee4ae84	-0.44664395
7	0xbec2e778	-0.38067222
8	0xbd9aaf10	-0.07552922
9	0x3e3e155d	0.18562837
10	0xbe0bfd90	-0.13670945
11	0xbe54ebca	-0.20793071
12	0xbe592ac1	-0.21207716
13	0x3dc45b27	0.095876984
14	0xbec92ee8	-0.392936
15	0xbd99fe5a	-0.07519217
16	0xbe7c45c8	-0.24635994
17	0xbe93ed1b	-0.28891835
18	0xbd908a73	-0.07057657
19	0xbd5f573f	-0.054526564
20	0x3ea2d192	0.31800514
21	0xbe0bbfb2	-0.13647345
22	0xbcfe1496	-0.031015676
23	0xbe8367eb	-0.2566522
24	0xbe51146c	-0.20417947
25	0xbeeb5333	-0.45961913
26	0x3d9d4855	0.07679812
27	0x3e2840ea	0.16431013
28	0x3d4e83d8	0.050418705
29	0xbd63172d	-0.055442024
30	0xbd69a0f1	-0.05703825
31	0xbe95000b	-0.29101595
32	0x3f01bd51	0.506795
33	0xbea7cec8	-0.3277495
34	0x3d0d49b6	0.034494124
35	0xbe140730	-0.14455867
36	0xbe38fc03	-0.18064885
37	0x3e890c89	0.26767376
38	0xbc08bbee	-0.008345587
39	0xbdcf59c6	-0.10124545
40	0xbe79e9ca	-0.2440559
41	0x3e5410ac	0.20709485
42	0x3eb6ee9c	0.3572892
43	0xbe4b433f	-0.19849871
44	0x3dfc5074	0.12320033
45	0xbe4a8837	-0.19778524
46	0xbe7921b0	-0.24329257
47	0x3de521bc	0.11188075
48	0xbdbc5b52	-0.091971055
49	0xbf09a1a9	-0.537623
50	0xbd187dd5	-0.037229378
51	0xbe130816	-0.14358553
52	0xbe954411	-0.29153493
53	0xbe949a86	-0.29024142
54	0xbed1fd1f	-0.4101343
55	0xbd019a6b	-0.031641405
56	0xbec16d2f	-0.37778613
57	0xbe821583	-0.25407037
58	0x3a82472e	0.0009939426
59	0xbe945788	-0.2897303
60	0xbcbbbf94	-0.0229185
61	0x3d5383e9	0.05163947
62	0xbe3e2bf4	-0.18571454
63	0xbd45fd64	-0.048337355
64	0x3e8f2e29	0.27964905
65	0xbe455b17	-0.1927303
66	0xbe0a5464	-0.13508755
67	0x3da3e0f5	0.080018915
68	0x3d28fdfb	0.04125784
69	0x3e3fd087	0.1873189
70	0xbd23b0bc	-0.03996347
71	0xbe3d67d8	-0.18496644
72	0xbe2a4284	-0.16626936
73	0xbe916087	-0.28393957
74	0xbc8d0db5	-0.01721845
75	0x3e278f2d	0.16363211
76	0xbe0fb5c1	-0.14034177
77	0x3db53ca4	0.08849457
78	0x3de1c3ae	0.11023651
79	0x3e987c6e	0.29782432
80	0x3e2176d0	0.1576798
81	0xbe1627c1	-0.14663602
82	0xbf1568db	-0.5836312
83	0x3c99198d	0.018688941
84	0x3d816052	0.063172
85	0xbdb5cf84	-0.08877471
86	0x3e8ad934	0.27118838
87	0xbe3dd9d6	-0.18540129
88	0xbe83ec39	-0.2576616
89	0x3ec5929b	0.38588414
90	0x3da92efd	0.082609154
91	0xbea0bd7c	-0.31394565
92	0x3db8b26e	0.09018408
93	0x3e5b1b39	0.21397103
94	0xbdaadfc7	-0.083434634
95	0x3e74d970	0.23911071
96	0xbd8ebf68	-0.069701016
97	0x3d7d90e2	0.06190575
98	0xb9d52966	-0.0004065737
99	0xbdcaa961	-0.09895588
100	0x3e527231	0.20551373
101	0x3d83181c	0.06401083
102	0xbd187b89	-0.037227187
103	0xbe808179	-0.2509878
104	0xbd7655f4	-0.060140565
105	0xbddaae12	-0.106777325
106	0x3e95149c	0.29117286
107	0xbe57a342	-0.21058372
108	0xbe572c2b	-0.21012942
109	0xbe3e1a9f	-0.18564843
110	0xbea87ca6	-0.329076
111	0xbe0c5887	-0.13705646
112	0xbe18d6ed	-0.14925738
113	0x3d3adf55	0.045623142
114	0xbd307992	-0.04308469
115	0x3d00bad1	0.031428162
116	0xbe34ff30	-0.17675471
117	0xbe0d8b7a	-0.13822737
118	0x3e3c94f4	0.18416196
119	0xba2cb5d1	-0.0006588372
120	0x3d109361	0.0352968
121	0xbdf6cc43	-0.120506786
122	0x3da0fe6e	0.078610286
123	0x3cb8ba1e	0.022549685
124	0xbc704251	-0.014664249
125	0xbd61a2a8	-0.05508676
126	0xbdf3f7ed	-0.119125225
127	0xbe008f94	-0.1255477
128	0x3e499251	0.19684722
129	0xbe2eeffe	-0.17083737
130	0xbdfe1297	-0.124058895
131	0x3d84b6a1	0.06480146
132	0x3e1fc561	0.15602638
133	0xbde5b030	-0.11215246
134	0xbe2f5083	-0.17120557
135	0x3e82194f	0.25409934
136	0xbbee2851	-0.0072679897
137	0x3df7fa3e	0.12108277
138	0x3eb69fd0	0.35668802
139	0xbdbaaba5	-0.0911477
140	0xbe4b22e0	-0.19837523
141	0x3d1f1987	0.038842704
142	0xbd90ccd3	-0.07070317
143	0xbe0e9f74	-0.13928014
144	0xbdbf0a22	-0.093281046
145	0x3e62ec33	0.22160415
146	0x3dbeb594	0.09311977
147	0xbe22230d	-0.15833683
148	0xbe1f0c31	-0.15531994
149	0x3e41e07b	0.18933289
150	0xbf328c81	-0.6974564
151	0xbe6c247d	-0.23060794
152	0xbf093841	-0.5360146
153	0x3ddadedd	0.10687039
154	0x3e8b44ec	0.2720102
155	0x3dcc07c4	0.09962419
156	0xbcd3b740	-0.025844216
157	0xbec871ad	-0.39149228
158	0xbdca6946	-0.098833606
159	0x3e68a202	0.22718051
160	0xbc022d03	-0.007945302
161	0xbe2fac91	-0.17155673
162	0x3d7dc5b6	0.06195613
163	0x3d18d5fd	0.03731345
164	0x3e073bb1	0.13206364
165	0xbd8f9b33	-0.07012024
166	0x3ee60189	0.44923046
167	0xbe12aa93	-0.14322881
168	0x3e8f2b4e	0.27962726
169	0xbe614421	-0.21998645
170	0x3ddf6245	0.10907415
171	0xbe9add61	-0.30247024
172	0x3dab338d	0.08359442
173	0xbabd5c9b	-0.0014447154
174	0xbd150849	-0.036384854
175	0xbe9bb0d2	-0.3040834
176	0xbd9aa3e2	-0.075507894
177	0x3e3f1d33	0.18663482
178	0xbdae2ca0	-0.08504605
179	0xbe3fb171	-0.18720032
180	0xbe52fb08	-0.20603573
181	0xbef76ad2	-0.48323685
182	0x3deaaa97	0.11458319
183	0x3e8f9f3b	0.2805117
184	0xbd5bc9a2	-0.05365909
185	0xbbbd1ff5	-0.005771632
186	0xbe4c08a3	-0.1992517
187	0xbdfa81fc	-0.12231824
188	0x3e11756a	0.14204946
189	0xbdaac7b2	-0.0833887
190	0x3dd5e804	0.10444644
191	0xbe21a642	-0.15786079
192	0x3d9578d6	0.07298438
193	0x3e2a64d8	0.16640031
194	0x3e8e8485	0.2783548
195	0xbebe4f2b	-0.37169775
196	0xbd2eb811	-0.04265601
197	0xbe0164ce	-0.1263611
198	0xbda2d134	-0.079500586
199	0x3dec4a99	0.11537666
200	0x3ea7b345	0.3275396
201	0xbe11f426	-0.14253291
202	0xbd8b2512	-0.0679418
203	0xb87a2040	-5.963468e-05
204	0xbe2efbdd	-0.17088266
205	0xbe0e4899	-0.13894881
206	0xbd8a2e01	-0.06747056
207	0xbe0ee3a7	-0.1395403
208	0xbd983190	-0.07431328
209	0xbe3999d9	-0.18125094
210	0x3e41ab90	0.18913102
211	0xbd1e8c74	-0.038708165
212	0xbe8a6997	-0.27033684
213	0x3e256671	0.1615236
214	0xbdda5a50	-0.10661757
215	0x3e556055	0.20837529
216	0x3ea40d6b	0.32041487
217	0x3e84f42e	0.25967544
218	0x3ed0a6d0	0.40752268
219	0x3df82afc	0.121175736
220	0xbe7231d9	-0.23651828
221	0xbe8f1c00	-0.2795105
222	0xbd2de86e	-0.04245799
223	0xbe1874c2	-0.1488829
224	0xbec58901	-0.38581088
225	0xbd1d2fd1	-0.03837568
226	0x3d93fcdf	0.07225966
227	0x3ebf3a13	0.37348995
228	0xbed76ce8	-0.42075276
229	0xbe2ff998	-0.17185056
230	0x3e6e4004	0.23266608
231	0xbe341e39	-0.17589654
232	0xbea12420	-0.31472874
233	0x3e19b66c	0.15010995
234	0x3db6ece2	0.089319006
235	0xbcb6e476	-0.022325736
236	0xbdc55f28	-0.0963729
237	0x3e132788	0.14370549
238	0xbca19f40	-0.019729257
239	0x3e795eb4	0.24352533
240	0xbe0b3fa7	-0.135985
241	0x3c954c52	0.018224869
242	0xbdc8fd41	-0.09813929
243	0xbe8105b2	-0.25199658
244	0xbddaed4d	-0.10689793
245	0xbcb401bf	-0.021973489
246	0xbb6fe8c8	-0.0036607254
247	0xbe637615	-0.22213013
248	0xbf2027c7	-0.62560695
249	0xbf1604e9	-0.5860124
250	0xbe8d2493	-0.27566966
251	0x3df7018b	0.12060841
252	0xbeb77920	-0.358346
253	0xbd28827f	-0.041140076
254	0xbe76be39	-0.24096002
255	0x3d2ca1ff	0.04214668

fc2.bias f4 [64]
0	0xbe300adb	-0.17191641
1	0x3d1097ae	0.035300903
2	0x3d6be813	0.05759437
3	0xbc784809	-0.015153893
4	0x3e85bb68	0.26119542
5	0xbcb84fa6	-0.022498917
6	0x3daeff57	0.08544796
7	0xbd0fa6ce	-0.035071187
8	0x3ecbb98c	0.3979
9	0x3f16e819	0.589479
10	0xbe179663	-0.14803462
11	0x3e4fbf61	0.20287849
12	0x3e28da99	0.16489638
13	0x3c8da11c	0.017288737
14	0xbd35bd77	-0.04437014
15	0x3be07716	0.0068501337
16	0x3e0f2862	0.13980249
17	0xbd8025c8	-0.06257206
18	0x3d0dce2d	0.034620453
19	0x3ebaa2c0	0.36452293
20	0x3ec8f18a	0.3924678
21	0x3f28779f	0.6580753
22	0xbe71fe09	-0.23632063
23	0xbdedcb15	-0.116110004
24	0x3bd7a52e	0.0065809703
25	0xbdd152bb	-0.10220858
26	0xbd0156c3	-0.031576883
27	0xbe0eddd2	-0.13951805
28	0x3d1c9b3f	0.03823399
29	0x3dc39bca	0.09551199
30	0x3aecc13a	0.0018062957
31	0x3db944d8	0.09046334
32	0x3c5996c6	0.013280576
33	0x3e8a0598	0.26957393
34	0x3d76b7a4	0.060233727
35	0x3ce5fadf	0.028073726
36	0xbeab8a63	-0.33504018
37	0xbe11d2fb	-0.14240639
38	0xbe4a0c7b	-0.19731323
39	0xbe017edf	-0.12646054
40	0xbe38bcd2	-0.18040779
41	0x3f24be1f	0.643526
42	0x3ee2166b	0.4415773
43	0xbddda025	-0.10821561
44	0x3e04e397	0.12977444
45	0xbe120309	-0.1425897
46	0x3efd8763	0.49517354
47	0xbcda0589	-0.026613967
48	0x3ca93f64	0.02066011
49	0xb998efb6	-0.00029170298
50	0x3aa73be3	0.0012758937
51	0x3f23aa80	0.6393204
52	0x3dcf59cb	0.101245485
53	0xbe13fb65	-0.14451368
54	0x3ebb6643	0.36601457
55	0xbe4fdd9a	-0.20299378
56	0xbeaa833e	-0.33303255
57	0xbdd49f70	-0.10381973
58	0x3d27067a	0.04077766
59	0x3cb54720	0.022128642
60	0x3d9cd2c8	0.07657391
61	0x3f05b290	0.5222559
62	0x3dc3b60a	0.095562056
63	0xbe261b61	-0.16221382

fc3.weight f4 [4, 64]
0	0x3d04260a	0.03226284
1	0x3d10a9cd	0.035318185
2	0x3ebb8ba6	0.3662998
3	0xbe1cee0a	-0.1532518
4	0x3e27a904	0.16373068
5	0x3e2a951f	0.16658448
6	0x3e403e29	0.18773712
7	0xbe91cdf6	-0.28477448
8	0x3dc59d5e	0.09649156
9	0x3e1275bb	0.14302723
10	0x3bb2f545	0.0054613673
11	0x3e995685	0.29948822
12	0x3d0dc41e	0.03461086
13	0x3d559abb	0.052149516
14	0x3e25d7e4	0.16195637
15	0xbe2e8ec2	-0.17046645
16	0x3e3bc3fa	0.18336478
17	0x3e3a82bb	0.18213932
18	0x3e32a6ce	0.17446443
19	0x3e2bfef6	0.16796479
20	0x3e24107a	0.1602191
21	0x3e663de2	0.22484544
22	0xbe5369b3	-0.2064579
23	0xbd4aa394	-0.049472407
24	0x3d65fd12	0.05614955
25	0xbf677ef8	-0.90428114
26	0xbebf60ff	-0.3737869
27	0xbd09c724	-0.03363718
28	0x3d8b9c54	0.068169266
29	0x3e2c3b1f	0.16819428
30	0xbe08cd23	-0.13359503
31	0x3dc0666b	0.09394535
32	0x3d5ea193	0.054353308
33	0x3e3f630b	0.18690126
34	0x3f093ae0	0.5360546
35	0x3ef94b53	0.4869028
36	0xbe7aec0d	-0.24504109
37	0xbbb93b01	-0.0056527858
38	0xbe414611	-0.18874384
39	0xbe9062b8	-0.28200316
40	0x3b694f08	0.0035600085
41	0x3e1b3a5d	0.15158983
42	0x3e74c9e1	0.23905136
43	0xbf1c5096	-0.61060464
44	0x3eb94e88	0.36192727
45	0xbe5d9922	-0.21640447
46	0x3e769390	0.24079728
47	0x3e8b58f8	0.27216315
48	0xbd964d80	-0.07339001
49	0x3e8fcd06	0.28086108
50	0x3ea6e50e	0.3259663
51	0x3e46d492	0.19417027
52	0x3e42092e	0.18948814
53	0xbe8177ff	-0.25286862
54	0x3e03058c	0.12795085
55	0xbde17a62	-0.11009671
56	0xbdc310dd	-0.09524701
57	0xbdab1993	-0.08354487
58	0xbc50a42e	-0.012734456
59	0x3ddff601	0.109355934
60	0x3e965387	0.293606
61	0x3e8db453	0.2767664
62	0xbe8a7792	-0.2704435
63	0xbe1855f4	-0.14876539
64	0x3e06c67c	0.13161653
65	0x3e09a36e	0.1344125
66	0x3e9ae521	0.30252936
67	0x3db47e25	0.08813123
68	0x3e060836	0.1308907
69	0x3e511d17	0.20421253
70	0x3d84f7be	0.064925656
71	0xbdb222d6	-0.08698051
72	0x3d850b88	0.0649634
73	0x3e3a72e2	0.18207887
74	0x3dbddc1a	0.09270497
75	0x3ef52b81	0.47884753
76	0x3e19035d	0.14942689
77	0x3e8e4e57	0.27794144
78	0x3f118c27	0.5685448
79	0x3ddc03bf	0.10742902
80	0x3e118351	0.1421025
81	0x3e99cfcf	0.30041358
82	0xbe8628e6	-0.26203078
83	0x3e0cccd4	0.1375001
84	0x3e4d2b7f	0.20036124
85	0x3e781bb5	0.2422932
86	0xbd9d4db8	-0.07680839
87	0x3dd2a39c	0.10285112
88	0xbd77ae5a	-0.06046901
89	0xbdea2807	-0.11433416
90	0xbca5e792	-0.020252023
91	0x3eaee0f2	0.34155995
92	0x3e205be8	0.1566006
93	0x3ed5a225	0.4172527
94	0xbc918bd0	-0.017766863
95	0x3e73c8e9	0.2380711
96	0x3d52ee88	0.051497012
97	0x3df17431	0.1178974
98	0x3ecc92f6	0.39955872
99	0x3ee722a8	0.45143628
100	0xbe160b3f	-0.14652728
101	0xbe244fad	-0.16046019
102	0xbde759ae	-0.11296402
103	0xbe51c22c	-0.20484227
104	0xbe7cf980	-0.24704552
105	0x3e4ecf07	0.20196162
106	0x3e8d8407	0.2763979
107	0x3ebfd57b	0.3746756
108	0x3e9864a3	0.2976428
109	0xbe8069b9	-0.2508066
110	0x3e58d493	0.2117484
111	0x3e85e6cd	0.2615265
112	0x3e0ee28e	0.13953611
113	0x3edb4382	0.42824942
114	0x3e9239d4	0.28559744
115	0x3e17281f	0.14761399
116	0x3e3072e9	0.17231335
117	0xbd27f1cc	-0.04100208
118	0x3e35b168	0.17743456
119	0xbe0eb72d	-0.13937064
120	0xbe866e54	-0.2625605
121	0xbe45dfd0	-0.19323659
122	0xbd6d953c	-0.05800365
123	0x3dc03455	0.093849815
124	0xbe2ec8da	-0.17068806
125	0x3e3120ee	0.17297718
126	0xbe336dbb	-0.17522328
127	0x3d455ba7	0.04818311
128	0xbea48da6	-0.3213932
129	0x3e917a28	0.2841351
130	0x3b5380f5	0.003227291
131	0x3e5adb01	0.21372606
132	0x3e365d95	0.17809136
133	0x3e79d509	0.24397673
134	0x3e89a858	0.2688625
135	0xbdcf6a47	-0.10127693
136	0x3cb94688	0.02261664
137	0x3e540534	0.2070511
138	0xbe52c810	-0.2058413
139	0x3d881ff8	0.066467226
140	0x3e4a0ae1	0.19730712
141	0xbebfa9c9	-0.37434223
142	0x3e0ca966	0.13736495
143	0x3e63e112	0.22253826
144	0x3d73d070	0.059524953
145	0x3e04e592	0.12978199
146	0xbe978fb7	-0.29601833
147	0x3e009a0f	0.12558769
148	0x3d34cdb5	0.04414149
149	0x3e857865	0.26068416
150	0x3d8e092a	0.06935342
151	0xbcbe90cd	-0.023262406
152	0x3e8ae52b	0.27127966
153	0xbe8ad10e	-0.2711262
154	0xbe3ece01	-0.18633272
155	0xbe8f8165	-0.28028408
156	0xbca46b4d	-0.020070696
157	0x3f00de44	0.5033915
158	0xbeb56a35	-0.35432592
159	0xbd2255f7	-0.039632764
160	0xbef3eaa6	-0.4763996
161	0x3e49f69f	0.19722985
162	0x3ecec2a4	0.40382874
163	0x3e93afac	0.28844965
164	0xbd50e6cf	-0.051001366
165	0xbe8bcd9c	-0.27305305
166	0xbe44bbe6	-0.19212303
167	0xbe0d94ed	-0.13826342
168	0xbed5fc47	-0.41794035
169	0x3e74fb22	0.23923925
170	0x3e9384fd	0.288124
171	0xbde822fd	-0.113347985
172	0x3e2fc353	0.17164354
173	0xbe48f0be	-0.19623086
174	0x3e57232b	0.2100951
175	0x3ee5fdd5	0.4492022
176	0x3d8a2aab	0.067464195
177	0x3ec48d16	0.3838889
178	0x3e9f1292	0.31068856
179	0x3e93bffe	0.28857416
180	0x3de25d76	0.110529825
181	0xbe3cb4c6	-0.18428335
182	0x3dc0d114	0.094148785
183	0x3dc8a4c1	0.09797049
184	0xbea69900	-0.32538605
185	0xbe85695a	-0.2605694
186	0x3e8781d7	0.26466247
187	0x3de773ff	0.113014214
188	0xbeeea6fb	-0.4661177
189	0x3e497dc0	0.19676876
190	0x3b950322	0.0045474926
191	0xbeb9ae3c	-0.36265743
192	0xbed8c37c	-0.42336643
193	0x3e76625a	0.24060956
194	0x3f045fb4	0.5170853
195	0xbeef62d3	-0.46755084
196	0x3dd2bf23	0.10290363
197	0x3d9fac9c	0.077965945
198	0x3e02ebd9	0.12785281
199	0x3d839418	0.06424731
200	0x3e103b7f	0.14085196
201	0x3e5f907b	0.21832459
202	0x3e61af4e	0.2203953
203	0x3d48627a	0.04892204
204	0xbccbeeca	-0.024894137
205	0xbe8020f4	-0.2502514
206	0x3f6d41c3	0.9267847
207	0x3df4801d	0.11938498
208	0x3eac7a74	0.33687174
209	0x3ea8d573	0.3297535
210	0x3ed46729	0.41484955
211	0x3e69aed6	0.22820601
212	0x3d78ded6	0.060759388
213	0x3e8c5de2	0.27415377
214	0xbcefbd33	-0.029265022
215	0x3cefd2c3	0.029275304
216	0xbd893985	-0.06700424
217	0xbe8f4643	-0.27983293
218	0xbe7c4a39	-0.24637689
219	0x3f047a6b	0.51749295
220	0x3eee6d78	0.46567893
221	0x3e0b2019	0.13586463
222	0xbf088887	-0.53333324
223	0x3e03d581	0.12874414
224	0xbed8883b	-0.42291436
225	0x3e5a9b2e	0.21348259
226	0x3e28f32a	0.1649901
227	0x3eee97e0	0.46600246
228	0xbea2fa94	-0.318318
229	0x3db90e70	0.09035957
230	0x3d12b15e	0.03581368
231	0xbedbb24f	-0.42909476
232	0xbf49ac52	-0.78778565
233	0x3e879676	0.2648198
234	0x3e85531b	0.26039967
235	0xbe7b746f	-0.24556135
236	0x3eabb953	0.3353983
237	0xbea568c1	-0.32306483
238	0x3e2e98de	0.17050502
239	0xbe69b3c9	-0.22822489
240	0xbe00452c	-0.12526387
241	0x3e3b50a7	0.18292485
242	0x3e97a7cb	0.29620203
243	0x3e56b08a	0.20965782
244	0x3e430312	0.1904414
245	0x3e7a40e9	0.24438824
246	0x3e7621de	0.24036357
247	0x3e3fa408	0.18714917
248	0xbea39d72	-0.3195606
249	0xbee2a915	-0.44269624
250	0xbe3ceff2	-0.18450907
251	0xbd8194da	-0.06327219
252	0xbe3d567f	-0.18490027
253	0x3e03131a	0.12800255
254	0x3e7ceb65	0.24699171
255	0xbedc0f48	-0.4298041

fc3.bias f4 [4]
0	0x3ef71d08	0.48264337
1	0x3eb235f1	0.3480678
2	0x3e8fed72	0.28110844
3	0x3e8c534c	0.274073
