checkpoint.pth (torch, 29207 bytes, 6 tensors)

fc1.weight f4 [64, 37]
000000 4e 71 07 3e 99 5e 56 be 43 b4 7d be 98 01 15 be
       0.13226816 -0.20934524 -0.24775796 -0.14551389
000010 d9 c0 7a be ba 79 77 3d 86 6d e3 3d fb 6e 68 3d
       -0.24487628 0.060418822 0.11104874 0.056746464
000020 f8 2e c4 bd 40 c6 bf bb d9 5e c1 3c 88 a8 97 bc
       -0.09579271 -0.0058524907 0.023604797 -0.01851298
000030 6a 76 37 be 3b 41 7d be 28 5a aa bd 3a fd 25 3e
       -0.17916265 -0.24731915 -0.08317977 0.1620988
000040 04 8b 93 bd b4 da 8f bd ab 4a d4 3c 6c 0f 43 be
       -0.072042495 -0.07024136 0.02591451 -0.19048852
000050 90 09 1b 3e 80 61 6a be f5 8b 81 3e fb 6f d6 3d
       0.15140367 -0.22888756 0.2530209 0.10470577
000060 28 1f ec be ce b6 0a 3d 1f e9 30 3d 9f 2b a2 bd
       -0.4611752 0.033865742 0.04319107 -0.07918476
000070 0d bb 32 bd 4d 43 55 bd 45 ac 80 bb d1 41 07 3e
       -0.043635417 -0.052066136 -0.003926786 0.132087
000080 0c 4a 22 be 05 08 77 be 9c 15 b3 bd a5 c7 5d 3e
       -0.15848559 -0.24124153 -0.08744356 0.2165819
000090 85 0d 6d bd a6 d3 0f 3e ba cd 42 3e f2 2f 80 be
       -0.05787422 0.14045581 0.19023791 -0.2503658
0000a0 35 83 94 3d 2b 13 4a be e0 50 aa 3d d8 b0 bc bd
       0.07251588 -0.19733874 0.08316207 -0.09213418
0000b0 16 18 fd bd 44 ad af be 4d ab 32 bf b2 fb 12 be
       -0.1235811 -0.3431188 -0.69792634 -0.14353827
0000c0 5d 63 83 bd c0 20 ff bb dd 6d 9f 3e 3e f4 12 3e
       -0.064154364 -0.0077858865 0.31138507 0.14350984
0000d0 7c b0 e8 3d 00 2c d0 be 5f a0 ee 3d 15 f5 28 be
       0.11361787 -0.4065857 0.11651682 -0.16499741
0000e0 cb d4 59 3e 7c 1f dd bd 86 79 88 be b9 10 1f be
       0.2127258 -0.10797021 -0.26655215 -0.15533723
0000f0 e7 d7 2f 3d fe 4a 0b 3d cd 4d 19 be a0 06 26 be
       0.04293051 0.034007065 -0.14971085 -0.16213465
000100 fa fd 1b 39 ac 10 c4 3d 81 f0 3e bd b1 65 8e bd
       0.00014876566 0.095734924 -0.04661608 -0.0695299
000110 b0 37 f3 3d 2d b8 6f 3e 27 05 83 3d 33 b9 3b 3e
       0.11875856 0.23410101 0.06397467 0.18332367
000120 08 16 c3 bd 3d c1 11 bd bc de 68 3d 66 3f 41 bc
       -0.095256865 -0.035584677 0.05685304 -0.0117949005
000130 94 68 14 bd c7 da c7 3d 84 cd 22 3e af 55 af be
       -0.036232546 0.09758525 0.1589871 -0.3424506
000140 0c 9a 90 bd e8 f9 a4 3e 32 4b 65 be 01 ec b7 be
       -0.07060632 0.32221913 -0.22391966 -0.35922244
000150 3e 6d c1 3d da fd 4c 39 87 71 d6 bc 3d 0f 01 be
       0.094446644 0.00019549523 -0.02617718 -0.12603469
000160 9e 80 90 bd 79 ff 23 be 18 66 83 3e 4d a5 96 ba
       -0.07055782 -0.16015424 0.2566383 -0.0011493355
000170 d9 66 bb bd 2a 0b 9d 3e e0 1d d7 bd 20 05 df 3d
       -0.09150476 0.3067258 -0.10503745 0.108896494
000180 74 87 a3 bd 4d ee 28 be 52 18 aa bc 2c 6a 77 be
       -0.0798482 -0.16497155 -0.02076355 -0.24161595
000190 ad eb 32 3e cc 6d 12 3d c5 d1 ac bc 6c 62 93 bd
       0.17472716 0.03574924 -0.02109612 -0.07196507
0001a0 ae 9e 12 be 25 d6 ba ba ba 95 27 3d 1e 72 ae be
       -0.14318344 -0.0014254494 0.040914275 -0.3407144
0001b0 79 4f 3c 3e 64 f2 13 3d 6a 96 28 3b 19 21 66 3c
       0.18389691 0.036119834 0.002572442 0.014045977
0001c0 2a 4f 0b 3e dd 0e 70 3e 40 ad 0f 3e 70 75 1d be
       0.13604417 0.2344317 0.14030933 -0.1537683
0001d0 1a c9 22 3d f6 1e ba be 5f dc 72 3e c8 42 b1 be
       0.039742567 -0.36351746 0.23716877 -0.34621263
0001e0 c0 ee ef bf 9d 9e 70 bd 9d a4 07 3e aa c1 99 3d
       -1.8744736 -0.058745015 0.13246389 0.075076416
0001f0 37 3f a5 bd e0 e2 00 be 33 a9 8f bd 1d df c9 3c
       -0.08068698 -0.12586546 -0.07014694 0.024642522
000200 4b f7 66 bd e8 fc 69 be 59 df 6c be 14 02 36 bc
       -0.05638818 -0.22850382 -0.23132075 -0.011108894
000210 64 14 24 3e 82 fd e1 3d 13 43 4a 3d ad d4 57 be
       0.16023403 0.11034681 0.049380373 -0.21077223
000220 48 07 15 3e b9 a4 39 3c cb 69 d5 3d 40 c7 66 be
       0.14553559 0.011330777 0.10420569 -0.22536945
000230 e8 02 d5 bf ea 7d f6 3d be 82 a9 3e e2 a8 3a 3e
       -1.6641512 0.12035735 0.3310756 0.18228486
000240 b7 cb 1b bf ab 4d 4b bf 87 77 50 bc 4b b7 47 ba
       -0.6085772 -0.79415387 -0.01272381 -0.00076185603
000250 3e d0 e8 3d ea 2a 59 be f5 b4 de bd f1 fa c7 be
       0.11367844 -0.21207777 -0.108743586 -0.3905864
000260 cf 22 a8 be 4f c3 9f 3b f1 f5 ca bc 7c 59 a7 bd
       -0.32839057 0.0048755775 -0.024775477 -0.08171365
000270 83 e2 4d 3e 3c e7 bc be 2b 6f 1b 3e 02 62 d4 bd
       0.20105939 -0.36895168 0.15179126 -0.10370256
000280 05 4e fe bd 40 ab cb bd b6 00 ff be e8 f0 db bd
       -0.12417225 -0.09944773 -0.4980523 -0.107393086
000290 0d 9e 11 bd b5 84 00 be c9 64 16 3e da a9 00 3d
       -0.03555112 -0.12550624 0.14686884 0.031411983
0002a0 e9 99 96 bd c4 75 09 bc 57 a8 b9 3d fe aa 01 be
       -0.07353575 -0.008389894 0.090653114 -0.12662885
0002b0 d5 40 61 3e e4 ca a9 bd 88 f4 31 be 27 c8 b2 3d
       0.21997388 -0.082906514 -0.17378438 0.08729582
0002c0 fd cd 95 3e 8b 4b 87 3c 3e e2 27 3e cd c3 1b be
       0.2925872 0.016515514 0.16394898 -0.15211411
0002d0 da 80 ef 3b 7b 4a 34 3d e5 d1 97 bd a5 a6 e2 bc
       0.0073090615 0.044016343 -0.07413081 -0.027667353
0002e0 33 be 6d bc 1f 09 2c 3c 26 f3 47 3d 2d 49 bd bd
       -0.014510679 0.0105002215 0.04881587 -0.09242473
0002f0 f0 6d a8 be 29 3c 4a 3d bc cb 49 3e 5b 3e 9f bd
       -0.32896376 0.04937378 0.19706625 -0.07775565
000300 06 c8 05 3e 68 60 b4 be 6a 4c b2 bf fd f8 0a 3c
       0.13064584 -0.35229802 -1.392957 0.008482215
000310 c7 57 fe bd 1f aa 84 bd cc be 4a be 28 77 05 3e
       -0.12419086 -0.064777605 -0.19799346 0.13033736
000320 84 70 9a be a8 31 66 3e ee d3 9c bd ae 2c a0 3d
       -0.30163968 0.2247988 -0.0765761 0.07821022
000330 2a 9e ab be a0 d1 bf 3c dc ed f3 bd 46 3f 2d 3e
       -0.33519107 0.023415387 -0.119106025 0.16918668
000340 5f 8d 75 3e 60 17 d9 3b 06 65 7d be 16 02 85 3e
       0.2397971 0.006625101 -0.24745569 0.25978154
000350 6a b6 c8 bd a6 72 07 3e 75 9a 76 be 6d 15 79 bd
       -0.09800418 0.13227329 -0.24082358 -0.06081145
000360 7f dd b1 bd f2 97 74 3d a3 9c 5e 3e 1c bf d0 3d
       -0.08684825 0.05971522 0.2173944 0.10192701
000370 8f 91 22 3d 91 f5 03 bc d1 cd d9 3d c6 72 39 be
       0.039689597 -0.008054153 0.106349595 -0.18110189
000380 df 16 9c be 8e ff ca bb 02 3b 97 be 78 93 81 be
       -0.304862 -0.0061950153 -0.29537207 -0.25307822
000390 72 f2 03 be 6b a1 08 3e 25 97 e7 be b5 a8 fa 3d
       -0.12885454 0.13342826 -0.45232502 0.122392096
0003a0 87 20 b5 3c 00 29 9d 3d 24 2b d2 be 3d 70 1c 3e
       0.022110237 0.07673836 -0.4104854 0.1527719
0003b0 f2 18 03 be 22 75 8b bd 53 35 6a be fe 90 ac 3c
       -0.12802485 -0.06809451 -0.22871904 0.021065231
0003c0 29 70 06 3d 08 d5 bc be b5 99 a2 be 13 c5 a5 3d
       0.032821808 -0.3688128 -0.31757894 0.080942295
0003d0 56 1b dc 3d 2a 6a 72 be 07 0c a5 3e b3 52 f5 be
       0.107474014 -0.23673311 0.3223574 -0.47914657
0003e0 3e 51 03 3c e7 7d d4 3d fd 3a 7c be c9 e9 8d bd
       0.008014975 0.103755765 -0.24631877 -0.069293566
0003f0 9f e4 64 3e 86 27 84 be 9e 51 60 bc 13 09 ab be
       0.22352837 -0.25811404 -0.013691334 -0.3340536

fc1.bias f4 [64]
000000 69 3f 98 3d b0 0a e2 bd f2 65 46 be 65 fd 6c 3c
       0.074339695 -0.11037195 -0.19374827 0.014464711
000010 05 2f 1b 3e 33 94 07 bd 90 8d 05 be 2d 26 81 3d
       0.15154655 -0.03310032 -0.13042283 0.063061096
000020 f6 a4 23 3c c0 96 1d be d2 f2 d5 3d 62 f9 3d 3e
       0.00998806 -0.15389538 0.10446705 0.18552163
000030 cd 6d 42 3e e6 fe 4a 3e 4c d8 a9 bd 3c 93 19 be
       0.18987198 0.19823799 -0.082932085 -0.14997572
000040 b6 45 18 3d 36 f8 8a 3d 89 d1 76 3b 7c c0 3a be
       0.037175857 0.06785624 0.0037661514 -0.1823749
000050 66 ef 78 bd f1 2d 10 3e 36 d2 02 3c 8d 0c 21 bd
       -0.060775183 0.14080025 0.0079846885 -0.03931861
000060 4f c9 01 be 7f 96 13 3d 30 87 ac bd cc 70 63 be
       -0.1267445 0.036032196 -0.084242225 -0.22210997
000070 a7 ea f5 3d a8 5e 29 3e f8 69 a8 bd 39 4c 2a be
       0.12007647 0.16540015 -0.08223337 -0.16630639
000080 82 65 b3 3d e2 18 25 3d 8f a7 15 be 67 0e e9 3d
       0.087595955 0.040306933 -0.146147 0.113797
000090 36 f8 b0 bd b8 e9 84 3c 18 b8 57 bd 42 46 ff bc
       -0.086410925 0.016224727 -0.0526658 -0.031161431
0000a0 8c b1 fb bc 32 cb 87 bc b5 13 ab bd 39 c5 e5 3d
       -0.03072431 -0.016576383 -0.08353368 0.11219258
0000b0 0d cb 67 3d 1f 00 20 bd 52 a0 81 bd 97 bd 41 be
       0.05659013 -0.039062615 -0.06329407 -0.18919979
0000c0 72 88 96 be c0 45 89 3d 9e 65 0f be f4 32 c8 3d
       -0.29400975 0.06702757 -0.14003608 0.097753435
0000d0 0f 5f d7 bd 84 e9 26 3b 77 e9 48 be 8b 2c 09 bd
       -0.10516178 0.0025468776 -0.1962031 -0.033489745
0000e0 5a c2 bd 3c 56 6b c7 bd 86 e7 b0 bd 78 f6 e4 bd
       0.023163963 -0.097372696 -0.086379096 -0.11179823
0000f0 73 ae 6a 3b 37 4a 6c 3e 72 b5 a5 3d 67 76 10 3d
       0.0035809546 0.23075186 0.080912486 0.035269167

fc2.weight f4 [64, 64]
000000 0f 1f 06 bd eb 7a 3a 3c d6 42 9d 3d 7d 4a b1 3d
       -0.032744464 0.011381845 0.076787636 0.08656786
000010 67 6f 7e 3d 10 32 a0 bd 3b 19 41 bd 33 96 a0 bc
       0.06211796 -0.07822049 -0.047143202 -0.01960287
000020 d8 ac 9c 3a 2a 72 70 bb aa 11 94 bd c4 69 fc bd
       0.0011953367 -0.003668914 -0.07229932 -0.12324861
000030 de fe 15 be f1 e1 2d 3d cf 23 ed bd 0a 0c 32 bd
       -0.14648005 0.042451803 -0.115790956 -0.043468513
000040 e3 55 bd bd c9 1c 90 bd aa fc de bb 8c 30 67 3d
       -0.09244897 -0.0703674 -0.0068050222 0.056442782
000050 03 c3 9c bd 23 cb b4 bd 9e 71 c1 3c 8d 73 6f bd
       -0.07654383 -0.08827808 0.023613747 -0.058459807
000060 52 07 d2 bd 5a 89 0f bd 29 26 90 3d 65 37 18 3d
       -0.102553025 -0.035043098 0.070385285 0.037162203
000070 4e 35 ff bc c9 f3 7b bc b6 f8 9f 3d 9e 2b 72 bd
       -0.031153347 -0.015377947 0.0781111 -0.059123628
000080 7f 48 e6 3c 4f 1c 8d bc be af 45 bd f2 1e 2c 3c
       0.02811074 -0.017225413 -0.048263304 0.010505425
000090 84 76 0b be e2 3b 4f 3d a1 9c 47 3d 25 c7 0c be
       -0.13619429 0.050594218 0.048733357 -0.13747843
0000a0 73 c3 05 be 03 4b be bd f0 26 e2 3d db c8 15 be
       -0.13062839 -0.09291651 0.11042583 -0.14627402
0000b0 35 d7 91 3c a9 95 c4 bd 62 c9 f1 bd 4f 1a 5c 3d
       0.017802814 -0.09598858 -0.11805989 0.053736027
0000c0 6b 60 f6 bd ba 23 46 bd 5b fa bf bd c2 bd 03 bd
       -0.12030109 -0.048373915 -0.093739234 -0.03216339
0000d0 61 af 23 be 8c a8 0d be ea a0 c4 3c 98 45 c7 bc
       -0.1598487 -0.13833827 0.024002511 -0.024325177
0000e0 1d 6c af bd f8 60 85 bd a3 3f 0e be e8 88 b7 3c
       -0.08565543 -0.06512636 -0.13891463 0.02240415
0000f0 75 77 71 bd d1 3a 21 3d 4a a4 1c be 82 1f 51 bd
       -0.058951814 0.039362732 -0.15297046 -0.05105544
000100 00 d2 d7 bd f3 f7 0a be 35 89 5d 3d 68 0a 88 3e
       -0.10538101 -0.13571148 0.05408593 0.2657044
000110 c6 3c dc bb 63 17 aa 3e d8 05 d8 bb 18 ea b1 3b
       -0.006721112 0.33220968 -0.0065924935 0.0054295175
000120 00 87 22 be b5 23 ff bd c8 9b b2 bd bc 0b 7c 3e
       -0.15871811 -0.124579825 -0.08721119 0.24613851
000130 ef 53 5b be a3 9b ce 3c f1 1c 03 3d c4 d6 41 3e
       -0.21418737 0.025220698 0.032010023 0.18929583
000140 15 ca 35 39 7b e7 5e be 78 21 1d be bf fd 72 3e
       0.00017336787 -0.2176799 -0.15344799 0.23729609
000150 98 7e 8c 3e a3 97 e5 bd 27 8e 87 3e 1d 80 94 be
       0.27440333 -0.11210563 0.2647564 -0.29003993
000160 94 8a e3 be 87 2c 03 be 5d 04 27 be d1 a9 01 3e
       -0.44441664 -0.12809955 -0.16310258 0.12662436
000170 e1 c9 28 3c a8 17 aa 3e 59 1b 99 3e a4 fa 58 3e
       0.010302038 0.33221173 0.29903677 0.21189362
000180 81 17 e8 bd 3d 3a 02 3e e7 d0 6a be 1d 0a 6b bd
       -0.11332608 0.12717529 -0.22931252 -0.05738269
000190 37 29 52 be 90 fc d8 bb 51 6d de bc b9 fc 24 be
       -0.20523535 -0.0066219047 -0.027151735 -0.16112031
0001a0 e4 77 56 be 5a 7d 54 3d 30 60 93 3b 59 39 b1 bd
       -0.20944172 0.051877357 0.0044975504 -0.08653516
0001b0 82 7c d1 bd 0f eb 66 3d d4 1f dd be be d1 6e bd
       -0.10228826 0.056376513 -0.43188345 -0.058305494
0001c0 3b 97 d9 bd ad 9a b2 bd 36 00 18 be 4a cd 21 3e
       -0.10624548 -0.08720908 -0.1484383 0.15800968
0001d0 ae 95 b6 3d e7 cf 61 bc 71 12 c0 3d d0 39 23 be
       0.08915268 -0.013782478 0.093785174 -0.15940022
0001e0 f3 ef 82 bd 24 24 ab bd a4 01 a5 3c ce d4 99 bd
       -0.06393423 -0.08356503 0.020142384 -0.075112924
0001f0 41 9e 7a bc 03 26 06 bd 41 69 39 bd 0a 89 97 be
       -0.01529652 -0.032751095 -0.045266394 -0.2959674
000200 54 66 4f be cf 23 06 be 94 a8 65 3e 11 59 5d bd
       -0.20253879 -0.13099597 0.22427589 -0.05404002
000210 ea 16 68 3e 32 e6 9a 3d e8 c1 1a bf b1 42 23 3c
       0.22664991 0.075634375 -0.6045213 0.009964631
000220 99 2f d7 3d 56 b2 d4 bd fe d7 78 3d 7c 8d 27 be
       0.105071254 -0.103855774 0.06075286 -0.16362566
000230 d5 47 d4 bd 18 63 d6 3b 31 85 13 bf cb 2c 20 bd
       -0.103652634 0.0065425746 -0.5762511 -0.039105218
000240 99 f5 e6 be 31 e9 0e bd 60 e1 ec 3c 19 e9 91 be
       -0.4510925 -0.034890357 0.02891606 -0.28498152
000250 d5 64 01 be b9 d4 0f 3e bf c3 91 be 56 1a ea bd
       -0.1263612 0.14045991 -0.28469655 -0.114308044
000260 ae 86 74 be 4c 2f df bd 4a ca 2e 3e 2e 08 0e be
       -0.23879501 -0.10897693 0.17069355 -0.13870308
000270 68 94 69 be 5d e0 3f be e7 97 db 3d 86 f2 d5 bd
       -0.22810519 -0.18737932 0.107223324 -0.10446648
000280 5c b6 a0 be 58 30 b8 be 8a f6 c9 be 18 35 47 be
       -0.3138913 -0.35974383 -0.39445907 -0.19453847
000290 0f 81 25 3e c4 8d 7b 3d 8a 7e 3b 3e 82 2f d9 be
       0.16162513 0.061414495 0.1830999 -0.42419058
0002a0 74 aa 95 3e 32 06 83 be c3 85 aa bd 65 7a 4a bd
       0.29231608 -0.25590664 -0.08326294 -0.04943313
0002b0 82 b7 46 be d8 38 a5 be bf 03 80 3d 95 c8 c5 bd
       -0.1940594 -0.3226993 0.062507145 -0.096573986
0002c0 34 8f c8 bd 7b ec 16 be 41 08 25 be 3e a6 c1 3d
       -0.09792939 -0.14738648 -0.1611643 0.09455536
0002d0 c6 e1 b8 be a5 4e 22 3e 88 bc b5 3d 48 2a d4 3c
       -0.3610975 0.15850313 0.0887385 0.025899068
0002e0 eb fa 53 be a3 98 3b be 27 48 54 bc 8d bd 3d bc
       -0.20701186 -0.18319945 -0.012956656 -0.011580837
0002f0 af 7f a8 bd a8 7e 02 be 88 8f 7f bd 19 23 e2 be
       -0.08227479 -0.12743628 -0.06239274 -0.44167402
000300 57 e4 50 3e 8c d6 5a be 6b b7 84 3d c3 02 ae be
       0.20399605 -0.21370906 0.06480297 -0.33986482
000310 9d c8 13 be 59 41 11 be a0 2d 15 bd bd bc 09 be
       -0.14431997 -0.14185084 -0.036420465 -0.13450904
000320 e2 d8 82 bd 43 2e 25 3e 45 1e 35 be 79 1b 26 3d
       -0.06389023 0.16130929 -0.17687328 0.040553544
000330 ea 29 50 3d 0d 6b 22 3d 07 70 20 3e 83 cc ac be
       0.050821222 0.039652873 0.15667735 -0.3374978
000340 ea 3b 23 be 3f b7 b2 be f8 47 d1 3d a6 0f a9 be
       -0.15940824 -0.3490543 0.10218805 -0.3301975
000350 81 76 94 3d 58 fc 39 3e d7 69 09 3d 34 4b 69 be
       0.07249165 0.18162668 0.033548202 -0.22782594
000360 01 f7 62 bb 41 32 30 be 92 47 1b be 5e 4e 9d 3c
       -0.003463209 -0.1720667 -0.1516402 0.019202407
000370 90 17 05 3d 62 11 85 be 2b 11 87 be 73 fe 04 be
       0.032493174 -0.25989825 -0.26380286 -0.1298769
000380 d7 59 0d bf 3c 20 7f 3d bd e1 57 3e 27 df a7 bd
       -0.5521521 0.0622866 0.21082206 -0.0819686
000390 ed 56 0b bf 27 b2 5e be 29 8a 94 3e db a1 c5 be
       -0.54429513 -0.21747647 0.29011658 -0.38600048
0003a0 0a 39 12 be e6 c0 70 be b7 2b 6a bd b5 52 9d be
       -0.14279571 -0.23511085 -0.057170596 -0.30727163
0003b0 1f f4 88 be 3d 9d af bc 79 f4 a1 bd 5d 9b 87 3e
       -0.2674875 -0.021437282 -0.079079576 0.2648572
0003c0 81 7b c3 bd 5d bd 01 3e ff 3e 39 bf c3 3a 55 be
       -0.09545041 0.12669893 -0.7236175 -0.20823197
0003d0 0d 46 39 bd 38 cf 02 bc ee a5 b7 be 54 48 46 3e
       -0.04523282 -0.007983975 -0.35868782 0.19363528
0003e0 ff c5 4e bf 7d 67 0c bf 1d 8a 30 be e7 4f b8 3e
       -0.8077087 -0.5484541 -0.17240186 0.3599846
0003f0 cb ba 1c be fa 77 04 bd ef f4 78 be e2 82 46 3e
       -0.15305631 -0.03234098 -0.24312185 0.19385865

fc2.bias f4 [64]
000000 9b 8b eb bd dc 6b df bd 72 ed de bc a4 ae 93 3d
       -0.11501237 -0.109092444 -0.027212832 0.072110444
000010 49 77 60 3e 7a 68 eb 3d af bd 43 3c aa 00 7c bd
       0.21920504 0.11494537 0.01194708 -0.06152407
000020 e7 82 b7 3e 51 65 03 3f 7d cd 7c bd 43 55 69 3e
       0.35842058 0.5132647 -0.061719406 0.22786431
000030 55 fe ee 3d 34 c3 d8 bd d8 4b 92 bd a2 f7 82 bc
       0.11669604 -0.10584107 -0.07143372 -0.015987221
000040 11 84 a6 3d a2 b0 e3 bd e6 9b b0 bd 7a 7b 52 3e
       0.081306584 -0.111176744 -0.08623485 0.20554915
000050 04 68 ba 3e 04 9b 21 3f 63 ba 56 be c2 d4 82 bc
       0.36407483 0.6312716 -0.20969538 -0.015970591
000060 81 2c 8b bd 4d 6d 43 be ee 97 2c bd 51 26 96 bc
       -0.06795598 -0.19084664 -0.04213708 -0.018328818
000070 6c 19 9b 3d db 5a c3 3d 76 93 ec 3d cc f5 0e 3e
       0.07573208 0.09538814 0.115515634 0.13960952
000080 74 f5 d0 bc eb a6 45 3e eb 43 9f 3c ab ad a9 bb
       -0.025507666 0.19301955 0.019441565 -0.0051781735
000090 7c a0 94 be 33 67 61 be 95 38 94 bd 59 1a cb bd
       -0.2902869 -0.22012024 -0.07237355 -0.09917135
0000a0 cb b2 00 be a2 50 11 3f b4 96 c7 3e 14 87 86 bc
       -0.12568204 0.5676366 0.38982165 -0.016421832
0000b0 93 23 91 3c 90 4d 44 bd f5 ba d9 3e 81 db 27 be
       0.017717158 -0.047925532 0.4252545 -0.16392328
0000c0 3a a6 70 bd 55 26 07 be 2f d6 8b 3c b7 7c 13 3f
       -0.058752276 -0.13198216 0.017069904 0.57612175
0000d0 d8 47 36 3e d0 cc bb bd 7d a9 4b 3e 8d a6 5c bd
       0.17800844 -0.09169924 0.19888873 -0.053869773
0000e0 c1 a6 03 be 46 14 54 be cc ec 34 bc 30 7e ad 3d
       -0.1285658 -0.20710859 -0.011042785 0.08471334
0000f0 56 a0 81 3d ef e0 e6 3e 34 3c 23 3d 2f 50 1e be
       0.0632941 0.45093486 0.039852336 -0.15460275

fc3.weight f4 [4, 64]
000000 8e bd 45 bd 99 24 6e bc cd 4d 5e be 27 f3 83 bd
       -0.048276477 -0.014535093 -0.21709366 -0.06442862
000010 b6 b0 27 3e de e0 3e 3e 87 25 88 3e e7 4a 9b be
       0.16376004 0.18640468 0.2659113 -0.30330583
000020 e8 b0 77 3e 8d 94 0f 3e 41 b4 10 bd d6 f6 88 3e
       0.24188578 0.14021511 -0.035328154 0.2675082
000030 45 49 92 3d 03 c7 61 3d 65 2d bd 3e be 07 3b be
       0.07142881 0.055121433 0.36948696 -0.18264672
000040 5a fd 82 3e 6b 72 0d 3e bd 83 4a 3e 5a ec 04 3e
       0.25583917 0.13813178 0.19776817 0.12980786
000050 bd d1 d3 3d 6f e5 60 3e 24 ee 86 bc d9 07 49 3d
       0.10342739 0.21962522 -0.016470976 0.04907975
000060 79 2e 7e bc 0d de 04 bf eb 5d 97 be 19 e4 82 3c
       -0.01551401 -0.5190132 -0.2956384 0.015977906
000070 4c f4 af 3e 66 c2 b0 3d 93 e7 52 bf 0a ff ee 3d
       0.3436607 0.086308286 -0.82384604 0.116697386
000080 1c b5 05 3e ab b5 1d 3e 35 2a df 3e 31 f6 93 3a
       0.13057369 0.15401332 0.4358689 0.0011288581
000090 8f e6 42 be 03 a0 9a be a6 04 08 be 5f 37 9d be
       -0.19033264 -0.30200204 -0.13283023 -0.30706307
0000a0 d0 b1 f1 3e 8f 5c 1b 3e 71 87 c0 3e 95 f2 20 bd
       0.47205973 0.15172027 0.37603334 -0.039293844
0000b0 bb f5 41 3f 3f 0c d9 bc 1f 09 57 3e ef 41 a2 3e
       0.7576558 -0.026495097 0.20999573 0.31690928
0000c0 35 a5 c0 bd 99 41 c0 bd 74 f0 2d 3d c9 12 42 3e
       -0.09406511 -0.09387512 0.042465642 0.18952478
0000d0 b3 03 40 3e 43 3c 94 3e 6a 39 4c 3d 85 cb 63 bc
       0.18751411 0.28952226 0.04985944 -0.013903503
0000e0 22 dd 9f be 83 79 5d be ba 53 01 3e 0b 38 bb 3d
       -0.31223398 -0.21628384 0.12629595 0.09141549
0000f0 aa c4 b4 bd ab 32 7c 3e b5 42 12 3e fc 1b 13 3e
       -0.08826573 0.24628703 0.14283259 0.14366144
000100 f3 75 c4 3d 9e bc 05 be 89 96 b7 3e f6 4b 87 bd
       0.095928095 -0.13060233 0.35857037 -0.06606285
000110 18 87 34 3e 40 7a 62 3e 8d d5 80 3e a7 95 1c bd
       0.17629659 0.22116947 0.25162926 -0.038228657
000120 b7 dd 36 3e 66 14 06 3e d7 1f ce 3d b4 86 b6 3e
       0.17858015 0.13093719 0.10064667 0.35649645
000130 12 24 32 3e 61 12 5d 3e fc 3a 6d 3e 49 2f 49 bd
       0.17396572 0.21589042 0.23167032 -0.04911736
000140 05 05 e8 3e f8 c0 a8 3e 7b 2e ac be 28 b8 0f 3e
       0.4531633 0.32959723 -0.33629212 0.14035094
000150 03 d7 ed 3d 7e 0b 91 3e a3 c0 b1 bd e1 7e 21 3e
       0.11613276 0.2832908 -0.08679321 0.15771057
000160 f0 80 17 bd aa 75 0c be a9 1e 1e be 5a 75 85 3d
       -0.0369882 -0.1371676 -0.15441383 0.06516524
000170 b8 c7 87 3e 96 9b 1d 3e d2 71 9d bd 8f f3 18 3e
       0.2651956 0.15391383 -0.07687725 0.1493666
000180 64 48 57 3d fd 3f 2b 3c 51 c4 0b 3f 3f 28 02 3e
       0.05255927 0.010452268 0.5459643 0.12710665
000190 81 09 4e be cb 22 70 be bc 11 2a be 51 d7 8a be
       -0.20120813 -0.23450772 -0.16608328 -0.27117398
0001a0 89 29 6b be 9a 93 57 3e 96 dd 97 3e 49 60 85 3e
       -0.22965063 0.210524 0.29661244 0.26050022
0001b0 b3 c8 3a 3f 0a e6 ea bd 4d 24 45 3e 23 ce 00 3f
       0.7296249 -0.11469658 0.19252129 0.5031454
0001c0 84 16 1c be 26 54 87 bc 0a 0d ec 3d f7 e2 fa 3d
       -0.15242964 -0.016519617 0.115259245 0.12250321
0001d0 93 dc 2b 3e 50 83 8f 3e 06 b8 0e 3e 74 85 70 3d
       0.16783361 0.2802987 0.13937387 0.05872102
0001e0 50 be 30 be ca a1 cd bd e4 d0 a5 3d cd 42 d2 3d
       -0.17260098 -0.100406244 0.08096483 0.102666475
0001f0 8f fc 92 be 3f 08 e5 3d 43 32 27 3e 8a 91 59 3d
       -0.28708312 0.111832134 0.16327767 0.053117312
000200 56 78 34 bc 5d 68 c1 3e 14 79 7c 3e 79 b7 ce 3d
       -0.011015018 0.37774935 0.24655563 0.100935884
000210 8d c2 3d 3e dc 23 01 3e 9a 1b dd 3e 3f bd 17 bc
       0.18531246 0.12611336 0.4318512 -0.009261428
000220 58 31 56 3e d9 8e 12 3e fd 3b 3c be a2 3b 63 3d
       0.2091726 0.14312305 -0.18382259 0.055476792
000230 be 00 1d 3e 2b 0d 81 be c6 5e 7f be fb 52 c2 3d
       0.15332314 -0.2520536 -0.24938497 0.094884835
000240 c9 1f 10 3e 29 8c e2 3d d2 b9 ac be 40 7a 38 3d
       0.14074625 0.1106189 -0.3373552 0.04503846
000250 ce b5 ed 3d 28 56 6e 3e 39 3c 72 be bc 7d 51 3e
       0.11606942 0.23275054 -0.23655786 0.2045812
000260 b9 e7 8a 3e 49 74 76 bd 11 ae 9a bc bf 96 a8 3c
       0.27129915 -0.060169492 -0.01888183 0.020579694
000270 4a 30 a6 3d 82 0c d3 3e a6 91 47 bc 65 af 6c 3d
       0.08114679 0.4122048 -0.012180721 0.057784457
000280 f8 51 12 be 12 75 14 bd 90 b8 2d 3f 7f 07 e0 3e
       -0.14289081 -0.03624446 0.67859745 0.4375572
000290 da b2 6d bc 2d d2 53 be d8 b9 37 be 5c e1 ba bc
       -0.014507974 -0.20685644 -0.17941988 -0.022812538
0002a0 b9 d9 b3 be ad d4 50 3e e1 12 8c 3e 25 5a d0 3e
       -0.35127047 0.2039363 0.27358153 0.40693775
0002b0 81 cc d1 3e 69 f7 28 bd 6c 38 32 3e 17 b2 39 3f
       0.40976337 -0.041251574 0.17404336 0.7253737
0002c0 86 ed 1d 3d 03 aa 5d be 20 4c f0 3d ee ea 93 3e
       0.038556598 -0.21646886 0.1173327 0.28890175
0002d0 27 ce a4 3d a5 f2 ff 3e f1 99 e6 3d 4c 09 f8 3d
       0.08047133 0.4998981 0.11259831 0.12111148
0002e0 ce 64 10 bf d3 ff c1 be 48 38 a6 3e b9 36 de 3d
       -0.56403816 -0.3789049 0.32464814 0.10850281
0002f0 77 f3 3b bf 73 51 58 3e 37 2c 3e be 5e 3f be be
       -0.7341837 0.2112482 -0.18571554 -0.3715772
000300 ef 45 03 3d 38 1b e3 3e 11 bf da bd f1 0e ef be
       0.032049116 0.44356704 -0.10680974 -0.46691087
000310 69 39 c7 3d 79 70 62 3e e9 12 12 3e 43 c7 99 bd
       0.09727747 0.22113217 0.14265026 -0.07508709
000320 2d 24 54 3e c6 5b 5b 3e d1 65 fc 3d a5 03 9d bd
       0.20716925 0.21421728 0.123241074 -0.07666711
000330 9b a0 0c 3e f5 40 62 3e 44 ba 48 3f 5d cc b3 3d
       0.13733141 0.22095092 0.7840922 0.087792136
000340 d1 bb ec 3e 95 1b ac 3e 58 b7 05 3e 8e 03 3d 3e
       0.46237043 0.33614793 0.13058221 0.18458387
000350 f6 55 43 3d 4d ba 8b 3e 02 b1 50 be 54 c3 5b 3e
       0.0476894 0.27290574 -0.20380023 0.2146123
000360 e1 f3 35 3c 58 c9 6a be 7c 7e 82 be 4d 19 0a 3f
       0.011105509 -0.22928369 -0.25487125 0.53944856
000370 84 77 f7 3e 49 d0 ca 3d 73 ab 49 be d8 a4 d3 3d
       0.4833337 0.099030085 -0.19694309 0.10334176
000380 26 35 44 be 36 c4 3e 3e e3 5e 16 3e 02 66 5d 3e
       -0.191609 0.18629536 0.14684634 0.21620944
000390 72 af 8a be 21 ad 22 be c3 7b 4f 3d e5 5f cb be
       -0.2708698 -0.15886356 0.050655138 -0.397216
0003a0 d8 5a df be 14 ce 6a 3e 83 0b aa 3e 21 fd c0 3d
       -0.43623996 0.22930175 0.33211908 0.094232805
0003b0 6a 91 4d 3f 7e 7d b8 be a5 90 32 3e 2f 16 9d bd
       0.8030001 -0.36033243 0.1743799 -0.07670247
0003c0 f8 ac 16 3e cf 16 e4 be 76 42 89 3e 17 21 43 3e
       0.1471442 -0.44548652 0.26808518 0.19055592
0003d0 bc 3a 04 3e 8a 4e cd bb 7f 3a f3 3d 69 3c 2e 3e
       0.1291303 -0.006265466 0.118763916 0.17015232
0003e0 3f 0b ea be 16 d3 48 bd cd 21 43 be de 33 e0 bd
       -0.45711705 -0.049029432 -0.19055863 -0.10947393
0003f0 b6 72 1a be 41 bb 1c 3e 47 92 18 3e 46 91 83 3d
       -0.15082821 0.15305807 0.1489955 0.06424193

fc3.bias f4 [4]
000000 28 b1 d3 3e 0f 71 b8 3e b7 c6 7e 3e f6 bc 64 3e
       0.41346097 0.36023757 0.24880491 0.22337708
